saved_models/cnn_model_vs.tflite (tflite, 902552 bytes, 10 tensors)

sequential_4/conv2d_6/Relu;sequential_4/conv2d_6/BiasAdd;sequential_4/conv2d_6/Conv2D;sequential_4/conv2d_6/BiasAdd/ReadVariableOp f4 [16, 3, 3, 3]
000000 9a 90 34 3a b9 71 06 3a 4d 02 54 3a b4 c1 14 38
       0.00068880024 0.00051286403 0.0008087501 3.546635e-05
000010 7e 77 54 b9 a2 cd 8d 38 0a b8 33 ba ce d6 7c b9
       -0.0002026241 6.761706e-05 -0.0006855732 -0.00024112614
000020 fa 93 ab b9 64 7a 7f b9 1a 01 3d 3a 5a 72 a6 b9
       -0.00032725913 -0.00024364289 0.0007209942 -0.00031747186
000030 86 aa 8f b9 18 15 86 38 85 fb 0a 38 e8 ed 2c b9
       -0.00027402135 6.393547e-05 3.313601e-05 -0.00016491825
000040 5e c0 6f b9 8f cd 3a ba 77 3b 6a b9 f3 8d 3d b8
       -0.00022864479 -0.00071259675 -0.00022338131 -4.5193312e-05
000050 ce 0a 20 ba 53 82 f8 39 07 3b 20 b8 b8 9b 41 ba
       -0.00061051256 0.00047399345 -3.8201946e-05 -0.00073855696
000060 c1 0e ca 39 dd 8c 0e 3a c7 03 2f 3a f8 43 4d ba
       0.00038539435 0.00054378604 0.0006676283 -0.00078302575
000070 9d b3 f0 39 bd a9 de 39 c5 d9 ee 39 6b ad ba b9
       0.0004591019 0.00042469605 0.00045557148 -0.0003560589
000080 40 2a 1e 39 a9 c0 52 b9 40 45 17 39 3b 91 67 3a
       0.00015083794 -0.00020098932 0.0001442628 0.0008833592
000090 00 0d 3b ba 40 f1 3e b9 5d 1d 82 39 b0 dc 04 b9
       -0.0007135421 -0.00018209685 0.0002481741 -0.00012670713
0000a0 d7 c2 3d ba 5e 71 56 ba 3e 16 0c 3a c1 c2 de 39
       -0.0007238811 -0.0008180345 0.00053438905 0.00042488243
0000b0 00 0e f8 b9 ec f4 3f 3a 8f 7b 7c 3a 34 fc b8 b9
       -0.00047312677 0.0007322568 0.0009631449 -0.0003528312
0000c0 f2 f3 be 39 df 69 f4 36 38 66 1e ba 57 d2 1c b8
       0.00036421377 7.2840917e-06 -0.00060424535 -3.7389193e-05
0000d0 c6 64 c9 39 76 17 44 ba 89 24 54 38 96 a1 5e ba
       0.0003841279 -0.00074803026 5.0578765e-05 -0.0008492706
0000e0 70 a7 d0 38 bb 7f 24 3a a0 85 36 3a 26 76 a6 38
       9.9494006e-05 0.0006275137 0.00069626607 7.937504e-05
0000f0 6d 91 35 3a ac 5b 5b 38 3e fc ce b9 c0 3f 90 b9
       0.0006926272 5.2299045e-05 -0.00039479317 -0.00027513318
000100 26 b8 80 b9 c1 c5 69 b9 52 dd ff 39 d0 d3 d9 39
       -0.00024551264 -0.0002229428 0.00048802287 0.00041547278
000110 6b 2e c1 b9 57 6b 8d b9 03 e0 16 3a 7d 39 35 39
       -0.00036846413 -0.0002697359 0.0005755426 0.00017282921
000120 6f 34 ca b8 fa 61 40 39 9e 67 7a b9 af 45 3d ba
       -9.641877e-05 0.00018347046 -0.00023880458 -0.00072201615
000130 f5 90 a7 39 06 88 92 39 60 38 bd 39 c1 1b 50 3a
       0.00031960724 0.00027948635 0.00036090892 0.0007938706
000140 7c 7b 33 3a d6 3c cb b9 62 63 46 ba 06 6b 9a b9
       0.0006846709 -0.00038764504 -0.000756791 -0.00029452908
000150 0c 5c 99 b9 88 79 0e ba aa 4e 1a 3a 87 9f f3 39
       -0.00029251014 -0.00054349797 0.00058863556 0.0004646743
000160 ff f6 7d 39 76 40 04 ba 26 04 fd 39 34 e9 01 3a
       0.00024219973 -0.0005045006 0.0004825901 0.00049557094
000170 a1 c1 d3 b9 bd 32 17 3a 47 62 0d 3a 92 bf 15 3a
       -0.0004038932 0.00057677535 0.00053933676 0.0005712445
000180 83 79 04 b9 34 5a 36 ba 8a 32 49 ba c8 88 ff b9
       -0.00012633768 -0.00069561903 -0.00076750724 -0.000487393
000190 ec 63 36 ba 49 bd bb b9 19 15 09 ba 40 db 39 ba
       -0.00069576385 -0.00035808448 -0.0005229279 -0.0007089861
0001a0 6b c1 4a 39 ea 82 cd 37 62 31 68 39 37 3a 59 ba
       0.00019336275 2.4498866e-05 0.0002214364 -0.0008286568
0001b0 c0 ae ca 39 59 81 6f ba a4 3f 36 ba 62 33 87 ba
       0.0003865864 -0.0009136401 -0.0006952232 -0.0010314996
0001c0 10 4a 7d ba 51 3d 3e ba 12 e9 0c 3a 27 f3 cd b9
       -0.000966222 -0.00072570617 0.00053753064 -0.0003928181
0001d0 9d e1 1a ba 1e ed ed 38 01 e9 4f 3a 03 58 1a 3a
       -0.0005908253 0.00011345207 0.00079311436 0.00058877486
0001e0 c7 a4 89 b9 5d 1b 5b 3a bd 07 14 b8 84 07 86 3a
       -0.00026253445 0.00083582645 -3.5293157e-05 0.0010225629
0001f0 7b b1 d1 39 48 02 8e 3a c9 a0 d8 39 fe d9 c3 b9
       0.0003999582 0.001083442 0.00041318525 -0.00037355715
000200 30 76 ae 38 33 dd 33 b9 e2 2f 81 3a 51 56 88 39
       8.318981e-05 -0.00017153173 0.0009856189 0.00026004252
000210 ba 86 88 b9 56 22 2c 3a 9d 7b 4b 3a 77 16 f6 39
       -0.0002604032 0.0006566396 0.0007762255 0.00046937514
000220 27 2b e3 39 d6 a2 ea 39 ff c7 1a 3a e5 cf c7 b8
       0.00043328965 0.0004475328 0.00059044355 -9.527783e-05
000230 56 06 eb b9 65 6c 60 ba dd 6f 4a b9 2b 7b 53 ba
       -0.00044827414 -0.0008561074 -0.00019305894 -0.00080673647
000240 67 47 b4 b9 28 f5 08 ba 0d 8e 11 3a ff dc 01 3a
       -0.00034385474 -0.00052245194 0.0005552478 0.00049538905
000250 5c f8 bd 39 a8 2c 3a 3a 96 cc 26 3a fa 56 a8 b8
       0.0003623393 0.0007101991 0.0006362883 -8.027065e-05
000260 2b 8a 82 39 9d 5f 09 b6 dd da 4a ba ef f3 80 38
       0.00024898475 -2.0470245e-06 -0.00077383016 6.148952e-05
000270 8c 35 e7 38 2b e5 a7 39 53 e4 a6 39 47 42 ff 39
       0.00011024912 0.00032023466 0.00031832102 0.0004868677
000280 c1 45 33 39 e3 c3 80 39 71 7a 01 ba d2 bb 2d 3a
       0.00017096756 0.0002456001 -0.00049392047 0.00066274137
000290 59 76 5b 3a 97 c9 2d 3a 93 ee 54 3a c0 f1 b8 b9
       0.0008371822 0.00066294655 0.00081227085 -0.00035275333
0002a0 c4 0e f6 39 38 5d 0b 3a 44 cf 90 39 cf e2 63 3a
       0.00046931778 0.000531632 0.00027620245 0.000869316
0002b0 4e 9a d4 b9 05 ca ff 39 53 d2 fd 39 cc 01 c0 39
       -0.00040550757 0.00048787906 0.00048412624 0.00036622433
0002c0 a3 4f 08 ba 88 fb 20 3a ef f2 dd 39 fc eb 24 3a
       -0.0005199855 0.00061409967 0.00042333404 0.0006291268
0002d0 a9 ec 0d ba b3 8b e1 b9 6b 4c 5e 39 58 11 8c 39
       -0.0005413988 -0.00043019428 0.00021200038 0.00026715803
0002e0 c9 47 65 39 ce 73 bd 39 4e 5a 44 3a 41 c9 4c 39
       0.00021865884 0.0003613517 0.0007490263 0.00019529929
0002f0 d1 a9 37 3a 5f 42 17 39 8d 7c ef 39 1e f1 5a 3a
       0.00070062006 0.00014425207 0.0004567843 0.00083519693
000300 93 65 8e 3a 87 cc 89 39 bc 03 8f 3a c8 60 84 b9
       0.0010864012 0.0002628306 0.0010911147 -0.0002524911
000310 60 51 35 3a c3 d9 3b 3a ed 5f 4a b9 bc b4 b9 37
       0.0006916728 0.0007165933 -0.00019299956 2.213788e-05
000320 9d 30 01 ba 73 0c 1f ba 57 61 a2 39 60 7c 32 3a
       -0.00049282034 -0.0006067224 0.00030971572 0.00068086945
000330 57 9d e5 39 95 c1 11 3a 51 90 a0 b7 7b 35 66 ba
       0.0004379551 0.0005560157 -1.9140689e-05 -0.0008781773
000340 b3 52 a7 b9 6e 62 9c ba fc 38 3a ba aa 23 3d ba
       -0.00031914338 -0.001193119 -0.0007103828 -0.0007215092
000350 c4 70 8f b9 a4 37 f1 b9 83 06 29 ba 49 85 41 b9
       -0.00027359102 -0.00046008558 -0.00064478087 -0.00018455567
000360 a4 df 92 b9 d2 45 19 3a 3c 13 b8 39 24 3f 55 b9
       -0.00028013915 0.0005846891 0.00035109546 -0.00020336785
000370 6b 94 69 3a 78 f7 2f 3a fb 56 83 b9 d4 f3 19 ba
       0.00089103606 0.0006712596 -0.00025051073 -0.000587282
000380 40 78 43 39 be c6 f1 39 f5 52 2a b9 e4 33 3c 3a
       0.00018641446 0.00046115177 -0.00016243367 0.0007179363
000390 81 a0 89 3a 18 d0 e6 39 18 4b 83 3a 6b 32 f7 38
       0.0010500104 0.0004402406 0.0010016887 0.00011787269
0003a0 04 47 3f 3a f9 3c b6 b8 c1 2a 5b 39 ec 3b 03 3a
       0.0007296654 -8.689793e-05 0.00020901395 0.00050061825
0003b0 fb c5 ed b9 3b 31 12 ba c7 bf f4 39 6a 12 2c ba
       -0.0004535167 -0.0005576794 0.00046682192 -0.0006564023
0003c0 58 69 0b ba 02 be 25 38 2b 81 4a ba 09 f6 eb 37
       -0.00053181266 3.9516024e-05 -0.0007724936 2.8128752e-05
0003d0 e3 44 4b 3a f2 e0 7c 3a 44 17 5f b9 95 ce b0 39
       0.00077541004 0.00096465566 -0.00021275604 0.00033723252
0003e0 ab e0 7f 39 19 26 df b9 51 59 31 3a a1 1a 84 38
       0.0002440239 -0.0004256226 0.00067653233 6.2992105e-05
0003f0 42 02 13 b9 45 fb 3d 3a 23 5e 96 b8 e1 e7 53 ba
       -0.00014019854 0.000724722 -7.170092e-05 -0.0008083564

sequential_4/conv2d_6/BiasAdd/ReadVariableOp f4 [16]
000000 8b db f1 39 69 4e e6 bc d4 20 50 be c1 9c e9 bc
       0.00046130674 -0.02811356 -0.20325023 -0.028517129
000010 b4 69 3f be 3e d6 55 be 21 2a bf bd 9e 3c 52 ba
       -0.18692666 -0.20882508 -0.09334207 -0.0008019897
000020 01 2c 43 be 95 6e 23 3e 85 72 cd bd 18 7e cf 3d
       -0.19059755 0.15960152 -0.100316085 0.10131472
000030 57 41 26 3e 1a 8e 3f be 5c a9 6c bc 6b 01 1e bc
       0.16235863 -0.18706551 -0.014444675 -0.009643893

sequential_4/conv2d_7/BiasAdd/ReadVariableOp f4 [32]
000000 cb 42 0b 3e c3 c4 fd bc 09 21 f9 3c 71 0d ba bc
       0.13599698 -0.030977612 0.03041126 -0.022711487
000010 3e c3 cf 3d 3e 0f 0d be 1a c9 2d be 0e 60 82 bd
       0.10144661 -0.13775346 -0.16971245 -0.06365977
000020 81 f9 15 be 4d 1b b6 3d c0 11 e1 bd 46 d3 e3 bd
       -0.1464596 0.08891926 -0.10989714 -0.111242816
000030 ef bd c4 bc af ba a8 bd bd 77 7a bd 13 72 76 3d
       -0.024016349 -0.08238732 -0.061149348 0.060167383
000040 64 96 91 3d 1d 8a de bd 34 9e a9 3d 32 ac 84 bc
       0.07108763 -0.10866187 0.08282128 -0.01619539
000050 00 96 c7 bd e1 c0 ec 3d 41 f9 51 3d fc 4a b8 bc
       -0.09745407 0.11560226 0.051263098 -0.022496693
000060 b8 25 f8 bd 45 f4 84 3d 5f 8a a7 bd fa e5 ba bd
       -0.12116569 0.06491903 -0.08180689 -0.09125896
000070 fd 3d 96 bd 8d 52 eb bd 89 93 fd 3d 49 3f 3f bd
       -0.07336042 -0.11490355 0.12381656 -0.046691213

sequential_4/conv2d_8/BiasAdd/ReadVariableOp f4 [64]
000000 7f 6d 0e bc 98 eb 5d ba b7 db 64 bc fa b4 b7 bc
       -0.008693098 -0.0008465587 -0.0139684 -0.022425164
000010 16 47 2c bc 96 48 25 bc cd 2e db bb 77 bd 26 bc
       -0.010514995 -0.010088107 -0.0066889287 -0.010177008
000020 e1 b5 32 bc 60 ba e2 ba 40 82 fd bb fe 7f 15 bc
       -0.010907621 -0.0017297976 -0.0077364743 -0.009124754
000030 4a ec 3c bc 5c fc c9 bd 2c c3 58 bc b6 24 e7 bb
       -0.011530945 -0.09862587 -0.013230126 -0.007053937
000040 f2 aa 77 bb 20 52 c3 bc 92 5e 52 bc 88 c6 ab bd
       -0.00377911 -0.023842871 -0.01283993 -0.08387476
000050 11 bc 25 bd e2 91 9a bd 41 b9 3a bd ff b4 4d 3c
       -0.040462557 -0.07547356 -0.04558683 0.01255536
000060 1f 70 86 bc 29 79 3d bc 4a 7d 84 bc 67 40 30 bb
       -0.016410885 -0.011564531 -0.016173024 -0.0026893856
000070 3d 51 51 bc 4b 0c a5 bd 57 8d 54 bd 5a 71 f0 bc
       -0.012775716 -0.08058985 -0.051892605 -0.029350925
000080 a1 b9 95 bc 9a 1e 30 bc e3 6d 5d bc 2e 66 a0 bc
       -0.018276991 -0.0107494835 -0.013514969 -0.019579973
000090 d4 42 80 bc 15 1f b9 bc 08 45 77 bb db ce df bb
       -0.015656866 -0.022597829 -0.0037730355 -0.006830079
0000a0 61 a2 ce bc 8e b6 16 bd 4e c6 6b bd db 36 8c bd
       -0.025223913 -0.03679519 -0.057562165 -0.068464
0000b0 6a c7 3b bc fe af 3c bc f0 94 29 bd 49 a2 06 bc
       -0.011461118 -0.011516569 -0.041401803 -0.008217403
0000c0 3b 5a 01 bc ee 01 b5 bc 7a 62 1f bc 29 d9 80 bd
       -0.007895048 -0.022095647 -0.0097280685 -0.0629142
0000d0 cd 76 54 bc 4d 2d 83 3d 72 df 17 bc 76 22 43 bd
       -0.012967777 0.06405125 -0.009269582 -0.047640286
0000e0 d9 59 fb bb e7 e2 15 bc 08 3a 60 3d 86 4c 6b 3d
       -0.007670623 -0.009148336 0.054742843 0.057446025
0000f0 80 3b 19 bc 28 43 08 bd f3 b1 85 bc be 17 f0 bb
       -0.009352565 -0.03326717 -0.016320204 -0.007327049

sequential_4/conv2d_7/Conv2D f4 [32, 3, 3, 16]
000000 52 8d 1f bd c6 bf d8 3c 1f 52 48 3b f7 83 c5 3c
       -0.038953133 0.026458632 0.0030566526 0.024110777
000010 88 fe 2b be 2f 18 41 be e1 fc fd 3c f7 f5 ff ba
       -0.16796315 -0.18856882 0.031004371 -0.0019528259
000020 cb e4 f9 bd b9 35 a4 ba 60 1d 9c bd b0 49 cb 3d
       -0.12201842 -0.0012528218 -0.0762279 0.09926164
000030 45 6d 18 3e 2d 61 eb 3c 4e 31 d1 3d 5f 95 19 3d
       0.14885433 0.02873286 0.10214482 0.037495967
000040 c5 06 b0 bc 78 00 57 bd f5 3a ba bd aa 7e f9 3d
       -0.021487603 -0.05249068 -0.090932764 0.121823624
000050 b1 d2 21 be d7 17 11 bd 65 65 3d bd a7 99 46 3c
       -0.15803029 -0.035423126 -0.046239275 0.0121215945
000060 21 e4 5a bc f1 aa b2 3d 90 71 4c 3d 6f 5c fa bb
       -0.013360054 0.08724011 0.04991299 -0.0076404135
000070 3a 1e 38 3e d3 ba 85 3d 7f e4 dc 3d 3a c8 53 bd
       0.1798028 0.065297745 0.1078577 -0.051704623
000080 ac f9 26 3c 6e c5 29 bc 3e ae b1 3d e1 4a af bd
       0.010191362 -0.010362012 0.08675812 -0.08559204
000090 58 3b 42 bd 66 ce c1 bd 27 8e 04 3e 29 7f 38 bd
       -0.047419876 -0.094631955 0.12944852 -0.045043144
0000a0 82 2a c3 bd 10 97 e0 bc 77 e3 3b 3d 99 2d b3 3d
       -0.09529592 -0.027415782 0.045871224 0.087489314
0000b0 00 f4 17 be 96 6e fa 3d c0 b9 c1 ba a8 27 09 be
       -0.14839172 0.12228124 -0.0014780089 -0.13394034
0000c0 6f 12 09 3d 35 7a 9c bd d9 33 9a be ff 89 36 bd
       0.033464845 -0.07640497 -0.30117682 -0.044565197
0000d0 bf 68 59 bc 46 dd b1 bd 49 bd 8d bd 40 31 fb bd
       -0.013269602 -0.08684783 -0.06920869 -0.12265253
0000e0 4e 82 66 be 39 bc 36 3e e6 93 50 be 3f e4 3c 3b
       -0.22510645 0.17845239 -0.20368919 0.0028822569
0000f0 7a 0c 27 3e a7 0c 8b bd ac 39 63 bc 40 01 1e 3d
       0.16313353 -0.067895226 -0.0138687305 0.03857541
000100 c0 57 3a be e1 fa 53 bd fd cd 92 3d a0 e6 e3 3a
       -0.18197536 -0.05175293 0.071681954 0.0017387457
000110 c1 fd 6c bd 78 e4 50 be 1a 50 c6 3d 53 b4 40 bd
       -0.057859186 -0.20399654 0.09683247 -0.04704697
000120 1c 35 39 be ef a7 9d bd 45 02 ca 3d 2e 55 85 bc
       -0.18086666 -0.076980464 0.09863714 -0.016275968
000130 06 ec 58 bc 9f 09 3c be 5f 05 89 3d 5e b8 e6 bd
       -0.013239866 -0.18363045 0.066904776 -0.11265634
000140 33 7c ae bd 59 79 c6 bd 8c ce 11 bd 4d a9 2b 3c
       -0.08519783 -0.09691114 -0.03559737 0.010477376
000150 73 d0 10 3e 2a 44 3c bd 2f 69 2f bd d7 bb 95 bc
       0.14142017 -0.045963444 -0.04282492 -0.018278046
000160 fc 81 3a 3d 6a 99 6d 3c 3c f7 28 3d aa ad b1 bc
       0.04553412 0.014501909 0.041251406 -0.021689255
000170 b5 25 22 be 52 bb c3 3d 0c d5 35 bd f0 0f 70 be
       -0.15834697 0.09557213 -0.04439263 -0.2344358
000180 7a 05 1e bd 76 cb bb bd 62 61 a2 bd c4 f3 b8 3d
       -0.03857944 -0.091696665 -0.079287305 0.090308696
000190 f7 5a 2b bc 8b 67 da bd ec bc 66 3d fd ab ce bd
       -0.010458699 -0.106642805 0.056332514 -0.10091398
0001a0 5a be 53 3b 12 b7 76 bc 23 e6 cb bd 6c 2c bb 3d
       0.0032309503 -0.015058296 -0.099560045 0.09139332
0001b0 8c 5c 09 3c ac 83 47 3d 2c 99 e1 bc 17 ab bb 3d
       0.008383881 0.048709556 -0.027538858 0.09163492
0001c0 04 47 0d 3c 0b 7e 34 3e 84 40 af 3a 18 05 ae bd
       0.0086228885 0.17626207 0.0013370668 -0.08497065
0001d0 f5 a4 10 be 8f 4c 00 be cf 4a e0 bd ab 78 60 3c
       -0.14125426 -0.12529205 -0.109517686 0.0137006445
0001e0 52 3b 32 be 74 dd 31 bd 2e 74 d5 3b 9d 01 16 3d
       -0.17405441 -0.043424085 0.006514094 0.036622632
0001f0 dc c2 3a 3e 1b 86 38 bd b7 a3 5a 3b 05 bb 8f bc
       0.18238395 -0.045049768 0.0033361742 -0.017545233
000200 79 db a4 bc 33 d1 56 3d 4c dc 21 3d e3 53 c6 bd
       -0.020124184 0.0524456 0.039516732 -0.09683969
000210 09 53 e7 bd 98 75 2d 3c 2b 76 dc 3c e0 72 37 3e
       -0.112951346 0.010587119 0.026911816 0.17914915
000220 78 19 cc bc 00 a2 15 3d c3 15 77 bd 21 a7 15 3e
       -0.024914488 0.03653145 -0.060323488 0.14614536
000230 06 03 c5 bd c8 a2 ba 3c fc 72 39 bd 74 1e 58 be
       -0.09619717 0.022782698 -0.045275673 -0.21105367
000240 da 93 91 bd 1d 2b 6d ba 18 6c 10 bc bc da cf 3c
       -0.071082786 -0.0009047257 -0.008814834 0.025372855
000250 d5 9a 2d 3d 95 89 00 bd b6 0b f0 3c 09 b7 0f bd
       0.042383987 -0.03138121 0.02930246 -0.035086665
000260 24 1d 77 3d 56 3a 8e bd f0 e7 a9 bd b8 22 e0 bd
       0.060330525 -0.069447204 -0.08296192 -0.10944122
000270 6c 8a bb bd ae 63 40 3d 00 74 cd bb 97 8d 8b 3d
       -0.09157261 0.046970062 -0.006269932 0.068141155
000280 de c6 2a bb 64 53 bd bd 2e 40 b9 3d 8b cb 02 3d
       -0.0026058475 -0.09244421 0.090454444 0.031932395
000290 f2 28 48 3d 5e 16 bb bd 0f 79 6b 3d bc 53 5e 3d
       0.048867173 -0.091351256 0.057488497 0.054279074
0002a0 76 d7 43 bb 34 8d a1 3c 93 9c b5 bd 72 f0 63 bd
       -0.0029883063 0.019720651 -0.08867755 -0.05564923
0002b0 d8 39 1e bd 40 f0 9d bd af c9 ac bd e1 39 ed 3c
       -0.038629383 -0.0771184 -0.084369056 0.028958263
0002c0 c1 bf dc bd 40 2c 93 3d 61 51 75 bd 1e ad 25 bc
       -0.10778762 0.071861744 -0.059892062 -0.010112075
0002d0 bf 70 3b bd d9 02 e6 bd 5e 05 3e 3c e2 a8 fa bc
       -0.04576182 -0.11231012 0.011597959 -0.030598108
0002e0 ba 33 8a 3c b8 30 5c bd ca d1 a9 3b 93 d9 a7 3d
       0.016870368 -0.0537574 0.0051824795 0.08195796
0002f0 cf b5 88 bd ac 5c bd bd 14 88 b7 3c 34 47 80 3c
       -0.06675302 -0.092461914 0.022403754 0.015658952
000300 40 84 27 bd 52 a9 01 be 6f 4b 05 bd 37 29 83 3d
       -0.040897608 -0.12662247 -0.032542642 0.064043455
000310 e2 b2 69 bd 02 63 b5 bc cf 20 d4 bd 61 19 b8 bd
       -0.05705536 -0.022141937 -0.1035782 -0.08989216
000320 53 8f f1 bd 11 ba c6 bd 3e d4 b6 bd 2b 60 f6 bc
       -0.11794915 -0.09703458 -0.08927201 -0.030075153
000330 46 d1 9d 3d 95 17 b4 3d 21 58 dc 3d 9e f2 be bd
       0.07705931 0.087935604 0.10758997 -0.09323619
000340 0b d4 e4 3d b8 f7 66 3d 45 b8 e3 bc dc 72 a1 bd
       0.111732565 0.056388587 -0.027797827 -0.07883236
000350 f0 03 cd 3d 88 21 dd bd a5 d9 8b bd c4 fc 8d bc
       0.10010517 -0.10797411 -0.06828622 -0.017332442
000360 00 f2 a4 3d 6f dd e2 bd 5c ae 24 3b b7 2a f9 bd
       0.0805397 -0.11077391 0.002512834 -0.1216635
000370 de 92 8d bd ee 82 5e 3d 88 1c 53 bc c7 17 eb bd
       -0.06912778 0.054324083 -0.01288522 -0.114791445
000380 fe 75 88 3d dc d5 3a bd 22 ba 4b 3d 96 4c a9 bd
       0.0666313 -0.04561411 0.049738057 -0.08266561
000390 e9 9f 6c bd 97 8e c9 bd 6a 76 a6 3d f5 f8 1f 3d
       -0.05776969 -0.0984165 0.081280544 0.039055783
0003a0 20 88 4e 3d 50 2f bb 3d 60 8d 23 3c ee 73 0e be
       0.050422788 0.091398835 0.009982437 -0.13911411
0003b0 3d 2e ad bd 2c 73 a6 bc 1c d7 27 bd 99 db fc bd
       -0.08456085 -0.02031859 -0.04097663 -0.123465724
0003c0 07 bd 0e bd 3e 99 eb bd 39 68 6a 3d b0 dc 74 3d
       -0.03484824 -0.11503838 0.0572283 0.059780777
0003d0 0e 5e e8 bd 42 55 b8 bd 1d 9d 91 bc 26 1c fa bc
       -0.113460645 -0.09000637 -0.017775113 -0.030531
0003e0 21 2f 92 3d ed 5e 7f 3d 93 32 dc 3d bf d5 3b bd
       0.071378954 0.062346388 0.10751834 -0.04585814
0003f0 6c da 03 be e5 00 97 bd 0f 0d 1f 3c 54 17 10 bc
       -0.1287629 -0.073732175 0.009707703 -0.008794624

sequential_4/conv2d_8/Conv2D f4 [64, 3, 3, 32]
000000 0f f9 aa bc 2e 8e aa bc 9e 08 84 3d fd 6f f9 3c
       -0.020870714 -0.02081975 0.06446956 0.030448908
000010 6c cc 8c bd 7c 46 c2 bd cd 51 42 3c 38 c2 b3 bd
       -0.06874928 -0.094861 0.011860323 -0.08777279
000020 9a 5b 3b 3d 44 19 43 bd 18 b7 44 bc c0 4a 0c ba
       0.045741655 -0.047631517 -0.012006544 -0.0005351715
000030 00 1a 93 bd ec fb 1e bc 3e bf 58 bb 70 66 78 3c
       -0.071826935 -0.009703618 -0.0033072974 0.015161142
000040 11 a3 b4 bc 57 9f 15 bd 63 a8 1b bd ea 02 76 bd
       -0.022050412 -0.03652891 -0.038002383 -0.060061373
000050 10 66 4a bd aa 07 7f 3d 9f cb 90 3d 36 5a a5 3b
       -0.04941374 0.06226317 0.07070088 0.0050461544
000060 1c f4 9e bc 53 54 bd bc 38 a3 72 bc 9e a3 86 3d
       -0.01940351 -0.023111498 -0.014809422 0.06574176
000070 72 24 09 3d 2b 99 70 bd dd 8b bb bc 4b 96 75 3c
       0.033482023 -0.058739822 -0.02289384 0.014989446
000080 06 42 c5 3c e3 1e f5 3c 6f 5d 29 bd c7 18 fd bc
       0.024079334 0.029921954 -0.04134887 -0.030895604
000090 a6 ac e6 bc fb 5a 4f 3d 29 87 4f 3d 60 55 6c bd
       -0.028158497 0.050623875 0.05066601 -0.057698607
0000a0 37 9f 62 bd 49 82 8c bb 46 11 46 bc 1a 00 b2 bd
       -0.05532762 -0.004287992 -0.012089079 -0.086914256
0000b0 c2 f8 8c b9 de 0f cb bb 16 1d cd bc 72 d5 90 3c
       -0.0002688822 -0.00619696 -0.025038283 0.017679904
0000c0 80 3c 89 3b 80 8a c0 bc 00 4d 35 3d db c7 9c bd
       0.0041881204 -0.023503542 0.044262886 -0.07655307
0000d0 2c b3 3c bd 7b a4 35 bd 20 96 00 bb ac 02 22 bd
       -0.04606931 -0.044346314 -0.0019620731 -0.03955333
0000e0 a4 51 6d 3d 81 1a 8f bc 9b 67 b4 3c b5 16 49 bd
       0.057939187 -0.017468693 0.02202206 -0.04909392
0000f0 10 39 13 3c 11 8b db bd 24 50 d2 bb 33 06 8e bd
       0.008985773 -0.10719884 -0.006418245 -0.06934776
000100 b6 bf 39 bc ff 4b 8b bb 6a 6d 87 3c 86 5f 5d 3d
       -0.011337211 -0.004251003 0.016531665 0.054046176
000110 47 85 4e 3c 90 e1 4f bd c9 b1 81 3d e4 78 f9 3b
       0.012605018 -0.050752223 0.06332738 0.0076132882
000120 38 a5 92 bd b0 41 0f bd 13 0d 79 3d 1e d5 7e bc
       -0.07160419 -0.034974754 0.060803484 -0.015553741
000130 50 a6 44 bd d3 65 88 bd 02 74 bc 3c f1 8d 3c 3d
       -0.04801017 -0.066600464 0.023004536 0.046033803
000140 f6 58 bf bc 25 5f cf bc d7 f4 21 3d ad 1e 8d bd
       -0.02335785 -0.025313923 0.039540138 -0.068906166
000150 37 62 3b bd 4e 1a 60 bc b9 c3 65 3d a1 d9 2a 3c
       -0.04574796 -0.0136781465 0.05609486 0.010427863
000160 aa 7d 1d 3d cb c1 a1 3a 05 96 6a 3d bc b3 5c 3d
       0.03844992 0.001234108 0.057271976 0.053882346
000170 34 c4 5c 3d b4 34 88 bb 23 1b 8d 3c 6c 1d f4 bc
       0.05389805 -0.0041566733 0.017224854 -0.029799186
000180 ea fd 92 bd f5 86 6d bd 69 c6 20 3b 07 ff 4b bd
       -0.071773365 -0.057990033 0.0024532324 -0.04980376
000190 03 15 07 bd 55 f8 32 bd 49 31 17 bd 28 4f f4 ba
       -0.032979023 -0.04369386 -0.036912236 -0.0018639313
0001a0 c4 da 3a bd 2c 19 22 be 93 46 7c 3d 22 26 69 bc
       -0.045618787 -0.15829915 0.061590742 -0.014230283
0001b0 ad 66 c6 bc c0 bb 75 3d 38 fc 61 bd ce 72 82 bd
       -0.024218882 0.059993505 -0.055172175 -0.063695535
0001c0 c7 63 64 3d 70 cd 9b 3c f1 ec 85 bd b8 49 80 bd
       0.055759218 0.019018859 -0.065393336 -0.06264061
0001d0 c4 aa f2 3c 8e d1 58 bd 4b af 9c bd e4 5e 7b 3d
       0.029622443 -0.052934222 -0.07650622 0.06136979
0001e0 47 28 58 3d e0 89 92 3c a1 57 ff bc 99 0d 54 bd
       0.052772786 0.01788801 -0.031169714 -0.05177078
0001f0 e7 6a 89 bd 08 49 67 bd 4c 8a 7c 3d 09 39 35 3b
       -0.06709843 -0.056466132 0.061655328 0.0027652404
000200 de 9b 4f 3d 00 a3 60 3a 8c 99 4c 38 8f 7d 97 bd
       0.050685756 0.0008569211 4.878039e-05 -0.07396995
000210 58 b7 d6 3c 57 8e 0a bd 33 59 d6 3c f5 31 93 bd
       0.026210472 -0.033827152 0.02616558 -0.07187263
000220 b9 83 08 3d 9d 09 c7 3d 61 5c 84 3d 3a d8 89 3c
       0.033328746 0.097186305 0.064629324 0.016826738
000230 b3 75 b6 3a 01 b9 10 bd 30 e7 87 3c e5 a6 57 bd
       0.0013920575 -0.035332683 0.016589731 -0.052649397
000240 3f bd 9e 3d d0 c1 5e 3d a7 d0 2a 3d e4 c9 15 bd
       0.077509396 0.054384053 0.041702893 -0.03656949
000250 d6 56 50 3c 39 ed 98 3c f8 ed 77 3d cf 64 0e 3d
       0.012716016 0.018667804 0.06052968 0.034764107
000260 79 45 98 bc c7 b2 b3 bd 8d 85 9a bb 5b 0e 9c bd
       -0.018587815 -0.087743334 -0.0047156275 -0.076199256
000270 49 5d 0b 3d d1 0f 36 3d e9 02 ad 3c 73 37 a9 3c
       0.03402451 0.044448677 0.021119552 0.020656323
000280 89 71 a5 3c e2 c0 d6 3a 25 10 05 bd 62 ca f0 bb
       0.02019574 0.0016384388 -0.0324861 -0.0073483447
000290 ab b1 84 bd a1 78 67 bd c6 f6 86 3c 80 30 0d 3d
       -0.064792 -0.056511525 0.016475093 0.03447008
0002a0 e2 f9 9e bd 48 c6 b3 bd 5b 5f bd bc 4f 1d 12 3c
       -0.07762505 -0.087780535 -0.023116758 0.0089181205
0002b0 a7 6d 47 bd 45 a4 50 3d bf 11 f6 bb 3e 2d 03 bd
       -0.048688557 0.05093791 -0.0075094397 -0.03202557
0002c0 9c 3b 75 3d 3d f5 ff bc 8d 02 3b 3d bc 4f 51 3d
       0.0598713 -0.031244868 0.04565673 0.05110143
0002d0 b8 9d c1 39 89 f2 99 3d 42 43 85 bd 38 e6 df bc
       0.00036929338 0.07516963 -0.06506969 -0.027331457
0002e0 c8 2f 71 bd c1 69 34 bd 43 de 65 bd 05 23 28 bd
       -0.05888346 -0.044046167 -0.05612017 -0.041049022
0002f0 af eb 87 bd 5e 2c 4d bd 23 ee a4 bd 3c 09 cd 3b
       -0.0663675 -0.05009114 -0.080532335 0.0062572043
000300 44 16 92 3c c9 e9 73 bc 40 c6 b8 3c a9 ef 86 bd
       0.017832883 -0.014887282 0.02255547 -0.0658868
000310 06 57 75 bd ec 8c 7a bb 04 7a 25 3d a5 48 e3 bc
       -0.059897445 -0.0038230969 0.040399566 -0.0277446
000320 52 8a 72 3d af 25 ec bd 22 25 f5 bc 27 4a 8b bd
       0.059213944 -0.11530625 -0.029924933 -0.06801253
000330 0a ec ca 3c 6e ef a1 bd 0b ea 82 bd 01 1b b1 bd
       0.024770755 -0.07906996 -0.063922964 -0.08647729
000340 f6 c8 9b bd c0 62 35 bd e0 f8 97 bb b6 89 22 3d
       -0.0760669 -0.04428363 -0.0046378225 0.039682113
000350 12 78 b5 bd c2 ad 09 3d 4b de 72 3a e0 16 04 bd
       -0.08860792 0.033612974 0.00092646916 -0.032248378
000360 56 39 a0 bc 90 ab 40 3d a6 54 2c bd 54 f4 64 3d
       -0.01955859 0.047038615 -0.042072915 0.055897072
000370 2c 77 90 bc e2 af dc bd c6 f4 45 3d 0e cd f2 3c
       -0.01763495 -0.107757345 0.048329137 0.029638793
000380 35 42 5c 3d 1b 5e 11 3d 90 3a f6 bc 27 27 79 bc
       0.053774077 0.035490137 -0.030057222 -0.015207089
000390 64 3f 83 bd d9 eb 9e bd 0b 3e b2 bd d2 e4 81 3b
       -0.06408575 -0.07759828 -0.0870324 0.003964045
0003a0 ec 21 38 bc 12 a1 33 bb 0b 34 ad bc 84 ee 1c bc
       -0.011238556 -0.0027409238 -0.02114298 -0.009578351
0003b0 fa 33 96 3d 7f c6 96 bd 2e 38 3d bd 36 cb 92 bd
       0.073341325 -0.07362079 -0.046196155 -0.07167666
0003c0 3f 86 66 3d 28 c2 51 3b 69 71 24 3d 1c 29 a0 bd
       0.05628037 0.0032006595 0.04014722 -0.07820341
0003d0 55 9f 8e bd 52 c6 9f bd 1c 29 8d bd a3 cb 4a 3d
       -0.06963984 -0.078014985 -0.068926066 0.04951061
0003e0 77 43 82 bd 79 06 53 bd 82 59 91 3d 31 04 e4 bc
       -0.06360524 -0.051519845 0.070971504 -0.02783403
0003f0 6a ba 04 3d 39 e1 ef bd 64 f7 a7 bd 82 f1 83 3d
       0.03240434 -0.1171288 -0.08201483 0.06442548

sequential_4/dense_5/BiasAdd/ReadVariableOp f4 [2]
000000 05 9e d0 bd 03 9e d0 3d
       -0.1018639 0.10186388

sequential_4/dense_4/BiasAdd/ReadVariableOp f4 [64]
000000 c8 c2 36 3d 5c 96 92 bb 2d be fc bb d7 8f bb bb
       0.04461935 -0.0044734906 -0.0077131004 -0.005723934
000010 1d 9d 72 bc ca 0e 32 bb d1 c1 c4 bb e3 34 f5 3c
       -0.014807967 -0.002716946 -0.00600455 0.029932445
000020 a7 d5 4d bc dc cc 61 bc 8c 6c eb 37 d8 74 da 3c
       -0.012563146 -0.013781752 2.806473e-05 0.026667044
000030 cc 0c a0 3c dc 69 ad 3c e0 b0 22 3d 4a 90 c4 bb
       0.019537352 0.021168642 0.039719462 -0.005998646
000040 78 c3 c4 bb d3 56 97 3c 31 e9 b5 bb e4 65 ea bb
       -0.006004747 0.018474018 -0.00555148 -0.0071532596
000050 62 bc c4 bb 90 a3 b5 bb 2d 8a ef bb 70 4a ff bb
       -0.0060039023 -0.00554318 -0.007310173 -0.007790856
000060 e4 3c cf bb 7f c4 c3 bb bc ae f2 bb 49 53 e9 3c
       -0.0063243974 -0.005974352 -0.007406084 0.028482096
000070 4a 16 d1 bb 1d 48 0c bc db 4b b3 bb a6 c6 c4 bb
       -0.006380831 -0.008562115 -0.005471689 -0.006005126
000080 b4 c2 c4 bb 19 c4 c4 bb ef a2 ca bb 79 c8 c4 bb
       -0.0060046557 -0.006004822 -0.006183974 -0.0060053435
000090 44 c7 c4 bb bb 7b 3d 3d 99 2b e8 bb 7f 49 a4 bb
       -0.0060051996 0.046260577 -0.0070852754 -0.005013644
0000a0 e7 2c ea bb 01 c5 93 bb 3b 71 06 3d 75 07 0a bc
       -0.007146466 -0.0045095687 0.03282283 -0.008424629
0000b0 9e bf c4 bb 54 fd 07 3d 47 a2 83 bc f2 c3 c4 bb
       -0.006004288 0.033200577 -0.01606859 -0.006004804
0000c0 37 75 f8 3c 90 c0 c4 bb 22 36 3b 3d a4 0e 3e 3d
       0.03032933 -0.0060044006 0.045705922 0.04640068
0000d0 31 94 9d bc 78 51 fb 3c 88 b6 c4 bb 6c 56 27 bc
       -0.019235702 0.030678496 -0.0060032047 -0.010213476
0000e0 01 5a c1 bb 36 6c e2 bb dd f4 61 bb fb f4 b5 bb
       -0.005900622 -0.0069098724 -0.0034478225 -0.0055528856
0000f0 b3 c1 c4 bb 79 fc a8 bb a6 e2 b0 3c 26 64 65 3c
       -0.006004536 -0.00515705 0.02159245 0.014000928

sequential_4/dense_4/MatMul f4 [64, 3136]
000000 32 95 35 bc f5 13 1d bc 4c ad 36 3d b2 ca 2c 3d
       -0.011082934 -0.009587278 0.044598863 0.042185493
000010 7d ba a1 3c 9a f6 2b 3d 01 3f 38 bc de ad fa bc
       0.019742245 0.041983224 -0.01124549 -0.030600484
000020 07 93 6a 3c fd eb 19 bb 19 fc a8 bc 85 66 5a 3b
       0.014317281 -0.0023486607 -0.020628022 0.0033325267
000030 ce 90 1b bd c3 e3 9f 3c 66 fc 57 3d d3 7c c4 3d
       -0.037979893 0.019517785 0.05273094 0.09594121
000040 41 37 c7 bb e0 67 18 3c 72 a3 85 bb 6c 0e 14 3e
       -0.006079585 0.0093021095 -0.004078322 0.14458627
000050 bc 48 91 3c 71 56 f2 3c 79 07 e2 ba 74 94 e4 3b
       0.017734878 0.029582234 -0.0017244659 0.006975705
000060 b0 6a c6 3c 14 89 41 bc 44 24 ae 3c 08 69 d0 3c
       0.024220794 -0.011812467 0.021257527 0.025440708
000070 a8 97 93 3b ef c3 a2 3b 15 0b 59 3c 9c 81 25 bd
       0.004504163 0.0049672048 0.013247271 -0.04040681
000080 ce cd 97 3d c8 0e a5 3c 0b 4c e7 bc d2 9d b5 bc
       0.07412301 0.02014865 -0.028234502 -0.022169981
000090 80 4d 6e ba 47 ce 83 bc dc ab 91 bd b6 62 65 bc
       -0.0009090528 -0.016089572 -0.07112858 -0.014000585
0000a0 a1 3d be bc ac 92 78 bd 5c 1b 99 3d 39 23 71 3d
       -0.023222746 -0.060686752 0.074759215 0.05887148
0000b0 c0 52 f7 bc f8 22 1b bc 27 f1 35 3d 5a fd e3 bb
       -0.030190825 -0.009468786 0.044419434 -0.006957692
0000c0 37 b8 ad bc a1 fb fc ba c0 61 d8 ba 51 6e 11 3d
       -0.021206005 -0.0019301065 -0.0016508624 0.035505597
0000d0 f7 7a 87 3c 33 59 df bd 32 b1 8c bc 1e e3 7e 3c
       0.016538126 -0.10905685 -0.017174337 0.015557079
0000e0 45 c0 02 3d 66 d2 c2 bc af 12 31 3d 6e 29 d7 bd
       0.031921644 -0.023781966 0.04323071 -0.10505949
0000f0 38 66 d7 3c f8 aa 39 3d ad e6 fa bc 7b 4f 0e 3d
       0.026293859 0.045329064 -0.030627573 0.034743767
000100 b1 00 24 bd 0e ca 3a bd 7f e8 ac bc f8 16 33 3d
       -0.040039722 -0.04560285 -0.021106957 0.043723077
000110 29 cb c8 3c 04 a6 0f 3c c8 46 d9 bb 48 6f 13 bd
       0.024510937 0.008767609 -0.0066307522 -0.035994798
000120 b4 9e 3d bd 83 9b 8f 3d 9b 7c 2b 3a aa 30 3d bc
       -0.04629393 0.070120834 0.00065417 -0.011547247
000130 28 f4 1f bc c2 3c f9 bb d3 f3 f8 3b 21 71 62 bd
       -0.009762801 -0.00760612 0.0075974255 -0.05528367
000140 d3 69 6a 3d 4a f0 4f bc 4d 4e e6 bc 57 92 c5 3c
       0.057229828 -0.012691567 -0.028113509 0.024117632
000150 22 29 f4 3c cc d7 78 3c 27 77 47 bc 38 68 62 3c
       0.02980477 0.015188169 -0.012174404 0.013818793
000160 8f d0 61 3d 55 39 c9 3c 3f cb a6 bc 9a ce 1f bc
       0.055130538 0.02456347 -0.020360587 -0.0097538475
000170 f9 21 e0 bc e6 fb 49 3d d6 b9 1c bd 84 43 2d 3d
       -0.02735995 0.049312495 -0.038263164 0.042300716
000180 78 ce 05 3d 89 3c 28 3d 19 ad 18 3b 96 c7 13 3e
       0.032667607 0.041073356 0.0023296534 0.14431605
000190 70 d3 10 3b cc 47 9d 3c e3 35 bf bd e6 fd 02 3d
       0.0022098683 0.019199274 -0.0933645 0.031980418
0001a0 62 0f 02 3d 86 52 1d bd d7 f9 8f bb fe 9c 4c 3d
       0.03175295 -0.03840878 -0.004393797 0.049954407
0001b0 70 bf a9 3c 33 b4 38 bb 8b eb ac bb c4 29 18 bd
       0.020721167 -0.002818358 -0.0052771023 -0.037149206
0001c0 29 ed 14 bb 08 3d d2 3a 9f 48 10 bd 94 54 a2 bd
       -0.0022724366 0.0016039917 -0.035225507 -0.07926288
0001d0 21 5a 23 3d 3f cf 95 bd 5d 85 cc bc fa b8 3b 3d
       0.039880875 -0.0731492 -0.024965936 0.045830704
0001e0 30 d6 e8 bc d8 8a 8f bc 84 7e c2 3d 4c 8b 93 3d
       -0.028422445 -0.01752226 0.09496787 0.07204303
0001f0 2a 06 f9 bc 38 4b e7 3c a9 43 f6 3c d1 e2 a5 3b
       -0.030398447 0.02823411 0.03006156 0.005062439
000200 15 2c 5a bc 8f e2 05 3d fa f8 28 3d 9b a9 70 bc
       -0.013316174 0.032686766 0.041253068 -0.014688875
000210 b5 9c d0 bc 32 0e 19 bd 79 d3 92 3b a8 ab 9a bc
       -0.025465349 -0.037367053 0.004480776 -0.01888068
000220 9c ac 20 3d 46 04 42 3d 8a 85 3d bd 16 4e 33 3c
       0.039227113 0.047367357 -0.04626993 0.01094391
000230 20 86 b8 bb b5 a1 35 bd 22 12 05 3d 59 eb 35 bc
       -0.0056312233 -0.04434367 0.032487996 -0.011103475
000240 f0 a8 28 3d 03 f5 af bc 96 ad 3d 3c 84 a4 5e 3d
       0.041176736 -0.021479135 0.011577031 0.054356113
000250 57 64 3b 3d 49 36 83 ba 65 69 ce 3b b6 3f 74 bd
       0.04574999 -0.0010010685 0.006299185 -0.059631072
000260 c7 8f da bc 70 ab 35 3b cc 76 84 3c ce d0 12 3d
       -0.026679887 0.0027720593 0.016169928 0.035843663
000270 b6 42 0e bd 82 5f be 3b e2 93 38 3c fa d8 e2 bc
       -0.03473159 0.0058097253 0.011265727 -0.027691353
000280 da da 4e bd e3 b0 0f 3d 55 b7 1d bd f8 27 04 3e
       -0.050501682 0.0350808 -0.038504917 0.12905872
000290 c0 96 83 bb ee 15 0f bd 26 79 ad bc d8 87 09 3d
       -0.0040157735 -0.034933023 -0.021175932 0.033576816
0002a0 0c c0 0b 3d d6 08 07 3d 9f ac d6 bc 89 1a 1d ba
       0.034118697 0.03296741 -0.026205359 -0.0005993029
0002b0 66 42 08 3d 64 f9 bb ba ed 27 37 3c ec 7a cb 3c
       0.033266447 -0.0014341292 0.011178953 0.024838887
0002c0 e9 9b 1d bd 5d ec 45 bc f5 16 00 bd b5 6d 66 3c
       -0.038478766 -0.012080279 -0.031271894 0.014064242
0002d0 78 78 00 3d a7 93 86 3d f0 b0 12 3b 16 18 a2 ba
       0.031364888 0.06571131 0.0022383295 -0.0012366797
0002e0 9f d7 86 bc 8c ab 57 bd 30 71 8d 3d 6c 4c bb 3d
       -0.016460238 -0.052653834 0.069063544 0.09145436
0002f0 1a 56 5a bc 2f 4e b5 3d 41 ce 00 3c 07 9e ad 3c
       -0.013326192 0.08852803 0.007861675 0.021193517
000300 9c 24 13 bd 24 2d fe bc 03 87 80 bb 17 05 50 3d
       -0.035923585 -0.031027384 -0.0039223447 0.050786104
000310 9e 3a 29 3d 2d e7 e0 bc f6 cf b8 3b 60 32 c7 3a
       0.041315667 -0.027453983 0.0056400253 0.0015197508
000320 5c 98 1f bc a2 c3 be bc fc 87 d2 3c c0 a4 32 3d
       -0.009740915 -0.023286644 0.025699608 0.04361415
000330 a8 9b 73 3c e9 54 35 3d ce 26 6b 3d 8e 5e 4d bd
       0.014868654 0.04427043 0.057410054 -0.050139003
000340 6d 9d 20 3c 5a 99 04 3d a4 13 cd bc ef 6f 85 bc
       0.009803158 0.03237281 -0.02503378 -0.016288726
000350 9b 24 3d 3c e6 f4 3f 3c 13 16 47 3d 83 28 95 bd
       0.011544372 0.011716103 0.048605036 -0.072831176
000360 45 70 2e 3d 72 7e cb 3b 57 7f 1e bc 82 ce 73 3c
       0.042587537 0.006210142 -0.009673915 0.014880778
000370 18 40 47 bc d4 c4 28 3d d7 82 cb 3c 24 ba be 3c
       -0.012161277 0.041203335 0.024842663 0.023282118
000380 45 79 ff bb e4 87 e5 3c cf 02 ea bc d9 39 f5 3c
       -0.007796439 0.0280189 -0.028565792 0.02993481
000390 5a d2 17 bd 60 d4 e0 3c 38 b3 ae bc 00 b8 75 3a
       -0.03706584 0.027445018 -0.021325693 0.00093734264
0003a0 84 91 58 3c 0b 74 68 bc ad 06 d0 bc c1 b0 0d bc
       0.013218287 -0.014187823 -0.025393808 -0.008648098
0003b0 c9 6d 22 bd f4 93 12 bd 5e cd e3 3c 7b 4d 8e 3c
       -0.03965548 -0.03578563 0.027807888 0.01737093
0003c0 75 8e 23 3c 20 d7 dc 3c c3 1a ef bc c3 40 fa 3d
       0.009982695 0.026958048 -0.029187566 0.122193836
0003d0 2a f6 49 bc 7a 99 e1 3d d4 de d9 3c 4a a2 ed bb
       -0.0123267565 0.110156015 0.02659551 -0.0072520124
0003e0 0d 3a 06 bc 1b d1 7e bc ce c3 4a 3e f9 04 b8 3d
       -0.008192551 -0.015552784 0.19801256 0.089853235
0003f0 90 e8 d0 3c 82 f3 65 3c 9b 8d 1a 3c 27 a7 7f 3c
       0.02550152 0.014035108 0.009433175 0.015603817

sequential_4/dense_5/MatMul f4 [2, 64]
000000 8d 84 af 3e 55 35 43 be c4 fc 75 be 1d 5d 09 bd
       0.34280816 -0.19063313 -0.24022204 -0.033536065
000010 76 74 81 be 99 cd d9 bc 1e 3f 8b be fc bf 04 3f
       -0.25284165 -0.026587294 -0.27196592 0.51855445
000020 39 44 00 be 3d 57 28 3e 2a f5 8d be af fb ca 3e
       -0.12526025 0.16439529 -0.27726108 0.39645144
000030 f8 4c 08 3f 43 8f ff 3e ab 5f 02 3e e1 45 97 be
       0.53242445 0.49913988 0.12731807 -0.295455
000040 58 fd 88 be b9 81 a5 be 2d 9f f8 3d d6 a3 f9 3c
       -0.26755786 -0.32325533 0.12139735 0.03047363
000050 9f 6f 19 be c3 19 f7 bd 64 3f ea bd 2f 71 f0 3d
       -0.14983986 -0.120654605 -0.11437872 0.11740338
000060 d6 13 d2 3d 33 41 70 be 2a 75 df 3d 36 b9 7f 3d
       0.1025769 -0.23462372 0.10911019 0.06243249
000070 61 86 ad 3d 70 2d f4 3b 2a 95 41 be 8d cf 36 be
       0.08472896 0.0074517056 -0.18904558 -0.17852612
000080 6e a4 67 be 80 27 51 3a 34 83 26 be 84 d0 87 be
       -0.22621319 0.0007978603 -0.16260988 -0.26526272
000090 98 92 83 be 40 20 9c 3e a4 1b 5b bc 20 24 88 3e
       -0.2569778 0.30493355 -0.013373289 0.2659006
0000a0 81 ca 1c bd 8f 26 32 3e 0e 9a 8f 3e f9 13 81 be
       -0.03827906 0.17397521 0.28047222 -0.2521055
0000b0 85 0e af bd d8 a7 5a 3e c2 4a 68 be 37 e9 c7 3d
       -0.08547691 0.2135309 -0.22684768 0.09761279
0000c0 3f 8d af 3e b4 08 aa 3d 7c dd 97 3e ed 8b 00 3f
       0.3428745 0.08302441 0.29661167 0.5021351
0000d0 71 43 2a bd cb ad 53 3e 96 fc 2c be 5e f0 53 be
       -0.041568223 0.20671766 -0.16893229 -0.20697162
0000e0 b3 26 1d 3e d4 95 97 3d 55 ae 25 3e f4 a3 d1 bd
       0.15346794 0.07401624 0.16179784 -0.1023635
0000f0 7b aa bc bd eb 2d 51 be 09 07 cc 3e a1 81 e3 3e
       -0.09212204 -0.20427673 0.39849117 0.44434837
000100 d9 2c d6 be 0e bb 51 be aa 42 54 3e 7f 26 82 be
       -0.4183109 -0.20481512 0.20728555 -0.25419995
000110 c8 06 22 3e 1e 90 82 be d4 83 7b 3e d1 60 77 3c
       0.158229 -0.25500578 0.24562007 0.015098766
000120 c3 a1 07 be ca c9 07 3d 89 80 8e be ad e7 04 bf
       -0.13245301 0.033151425 -0.2783244 -0.5191601
000130 d4 4b 66 be e4 7f 1e bf e9 be a7 be a3 b0 ae 3d
       -0.22489864 -0.61913896 -0.3276284 0.085297845
000140 9c d4 8f bd 71 98 6c bd 33 60 5b 3e 82 c5 6c 3d
       -0.07022974 -0.057762567 0.21423416 0.057805546
000150 92 4f 26 3e c1 1f af bd b6 79 31 3e 39 6a f2 3d
       0.16241291 -0.085509785 0.17331585 0.118366666
000160 cc 39 78 3e 55 34 30 be fe ce cc 3d ef 34 a9 be
       0.24240798 -0.17207463 0.10000418 -0.33048198
000170 8d 57 bd bd 8d 4b 50 bd c6 c3 6f 3e 01 c3 de 3d
       -0.092452146 -0.0508533 0.23414525 0.10877038
000180 04 7e 02 be 02 e3 4b 3e 5c 96 4d 3e 40 c3 51 3e
       -0.12743384 0.19910815 0.20076889 0.20484638
000190 67 48 43 3e 74 d9 e3 be 35 71 82 3e ad 8f e8 3d
       0.19070588 -0.4450184 0.25476995 0.11355529
0001a0 49 0f 8c bc 28 83 8b 3e 8c 62 bb bd fe a5 26 3e
       -0.017097132 0.27248502 -0.09149656 0.16274258
0001b0 a1 49 28 3e 49 b2 9e be a8 cd 13 3d ac 69 8c 3e
       0.16434337 -0.30995396 0.0360848 0.2742437
0001c0 3b fb ad be 21 11 4d 3e ae 13 08 be 5c d9 e5 be
       -0.33980736 0.20026065 -0.13288757 -0.44892395
0001d0 66 9b 13 3e 1c a5 3e be a1 b4 17 3d 89 e2 30 bc
       0.14414749 -0.18617672 0.037037496 -0.010796198
0001e0 2d a1 6f 3d a7 c3 9c bd d9 0d ab bd 97 4e 92 3e
       0.05850332 -0.07654505 -0.083522506 0.28575584
0001f0 4b 8a e0 3d de 06 7b 3e 28 e9 cb be 43 b1 aa be
       0.10963877 0.24514338 -0.39826322 -0.33338365
