saved_models/cnn_model_vs_quant_aware.tflite (tflite, 232968 bytes, 10 tensors)

sequential_4/quantize_annotate_14/MatMul f4 [2, 64]
00000000: 8d84 af3e 5535 43be c4fc 75be 1d5d 09bd
00000010: 7674 81be 99cd d9bc 1e3f 8bbe fcbf 043f
00000020: 3944 00be 3d57 283e 2af5 8dbe affb ca3e
00000030: f84c 083f 438f ff3e ab5f 023e e145 97be
00000040: 58fd 88be b981 a5be 2d9f f83d d6a3 f93c
00000050: 9f6f 19be c319 f7bd 643f eabd 2f71 f03d
00000060: d613 d23d 3341 70be 2a75 df3d 36b9 7f3d
00000070: 6186 ad3d 702d f43b 2a95 41be 8dcf 36be
00000080: 6ea4 67be 8027 513a 3483 26be 84d0 87be
00000090: 9892 83be 4020 9c3e a41b 5bbc 2024 883e
000000a0: 81ca 1cbd 8f26 323e 0e9a 8f3e f913 81be
000000b0: 850e afbd d8a7 5a3e c24a 68be 37e9 c73d
000000c0: 3f8d af3e b408 aa3d 7cdd 973e ed8b 003f
000000d0: 7143 2abd cbad 533e 96fc 2cbe 5ef0 53be
000000e0: b326 1d3e d495 973d 55ae 253e f4a3 d1bd
000000f0: 7baa bcbd eb2d 51be 0907 cc3e a181 e33e
00000100: d92c d6be 0ebb 51be aa42 543e 7f26 82be
00000110: c806 223e 1e90 82be d483 7b3e d160 773c
00000120: c3a1 07be cac9 073d 8980 8ebe ade7 04bf
00000130: d44b 66be e47f 1ebf e9be a7be a3b0 ae3d
00000140: 9cd4 8fbd 7198 6cbd 3360 5b3e 82c5 6c3d
00000150: 924f 263e c11f afbd b679 313e 396a f23d
00000160: cc39 783e 5534 30be fece cc3d ef34 a9be
00000170: 8d57 bdbd 8d4b 50bd c6c3 6f3e 01c3 de3d
00000180: 047e 02be 02e3 4b3e 5c96 4d3e 40c3 513e
00000190: 6748 433e 74d9 e3be 3571 823e ad8f e83d
000001a0: 490f 8cbc 2883 8b3e 8c62 bbbd fea5 263e
000001b0: a149 283e 49b2 9ebe a8cd 133d ac69 8c3e
000001c0: 3bfb adbe 2111 4d3e ae13 08be 5cd9 e5be
000001d0: 669b 133e 1ca5 3ebe a1b4 173d 89e2 30bc
000001e0: 2da1 6f3d a7c3 9cbd d90d abbd 974e 923e
000001f0: 4b8a e03d de06 7b3e 28e9 cbbe 43b1 aabe
0.34280816 -0.19063313 -0.24022204 -0.033536065 -0.25284165 -0.026587294 -0.27196592 0.51855445
-0.12526025 0.16439529 -0.27726108 0.39645144 0.53242445 0.49913988 0.12731807 -0.295455
-0.26755786 -0.32325533 0.12139735 0.03047363 -0.14983986 -0.120654605 -0.11437872 0.11740338
0.1025769 -0.23462372 0.10911019 0.06243249 0.08472896 0.0074517056 -0.18904558 -0.17852612
-0.22621319 0.0007978603 -0.16260988 -0.26526272 -0.2569778 0.30493355 -0.013373289 0.2659006
-0.03827906 0.17397521 0.28047222 -0.2521055 -0.08547691 0.2135309 -0.22684768 0.09761279
0.3428745 0.08302441 0.29661167 0.5021351 -0.041568223 0.20671766 -0.16893229 -0.20697162
0.15346794 0.07401624 0.16179784 -0.1023635 -0.09212204 -0.20427673 0.39849117 0.44434837
-0.4183109 -0.20481512 0.20728555 -0.25419995 0.158229 -0.25500578 0.24562007 0.015098766
-0.13245301 0.033151425 -0.2783244 -0.5191601 -0.22489864 -0.61913896 -0.3276284 0.085297845
-0.07022974 -0.057762567 0.21423416 0.057805546 0.16241291 -0.085509785 0.17331585 0.118366666
0.24240798 -0.17207463 0.10000418 -0.33048198 -0.092452146 -0.0508533 0.23414525 0.10877038
-0.12743384 0.19910815 0.20076889 0.20484638 0.19070588 -0.4450184 0.25476995 0.11355529
-0.017097132 0.27248502 -0.09149656 0.16274258 0.16434337 -0.30995396 0.0360848 0.2742437
-0.33980736 0.20026065 -0.13288757 -0.44892395 0.14414749 -0.18617672 0.037037496 -0.010796198
0.05850332 -0.07654505 -0.083522506 0.28575584 0.10963877 0.24514338 -0.39826322 -0.33338365

sequential_4/quantize_annotate_13/BiasAdd/ReadVariableOp f4 [64]
00000000: c8c2 363d 5c96 92bb 2dbe fcbb d78f bbbb
00000010: 1d9d 72bc ca0e 32bb d1c1 c4bb e334 f53c
00000020: a7d5 4dbc dccc 61bc 8c6c eb37 d874 da3c
00000030: cc0c a03c dc69 ad3c e0b0 223d 4a90 c4bb
00000040: 78c3 c4bb d356 973c 31e9 b5bb e465 eabb
00000050: 62bc c4bb 90a3 b5bb 2d8a efbb 704a ffbb
00000060: e43c cfbb 7fc4 c3bb bcae f2bb 4953 e93c
00000070: 4a16 d1bb 1d48 0cbc db4b b3bb a6c6 c4bb
00000080: b4c2 c4bb 19c4 c4bb efa2 cabb 79c8 c4bb
00000090: 44c7 c4bb bb7b 3d3d 992b e8bb 7f49 a4bb
000000a0: e72c eabb 01c5 93bb 3b71 063d 7507 0abc
000000b0: 9ebf c4bb 54fd 073d 47a2 83bc f2c3 c4bb
000000c0: 3775 f83c 90c0 c4bb 2236 3b3d a40e 3e3d
000000d0: 3194 9dbc 7851 fb3c 88b6 c4bb 6c56 27bc
000000e0: 015a c1bb 366c e2bb ddf4 61bb fbf4 b5bb
000000f0: b3c1 c4bb 79fc a8bb a6e2 b03c 2664 653c
0.04461935 -0.0044734906 -0.0077131004 -0.005723934 -0.014807967 -0.002716946 -0.00600455 0.029932445
-0.012563146 -0.013781752 2.806473e-05 0.026667044 0.019537352 0.021168642 0.039719462 -0.005998646
-0.006004747 0.018474018 -0.00555148 -0.0071532596 -0.0060039023 -0.00554318 -0.007310173 -0.007790856
-0.0063243974 -0.005974352 -0.007406084 0.028482096 -0.006380831 -0.008562115 -0.005471689 -0.006005126
-0.0060046557 -0.006004822 -0.006183974 -0.0060053435 -0.0060051996 0.046260577 -0.0070852754 -0.005013644
-0.007146466 -0.0045095687 0.03282283 -0.008424629 -0.006004288 0.033200577 -0.01606859 -0.006004804
0.03032933 -0.0060044006 0.045705922 0.04640068 -0.019235702 0.030678496 -0.0060032047 -0.010213476
-0.005900622 -0.0069098724 -0.0034478225 -0.0055528856 -0.006004536 -0.00515705 0.02159245 0.014000928

sequential_4/quantize_annotate_14/BiasAdd/ReadVariableOp f4 [2]
00000000: 059e d0bd 039e d03d
-0.1018639 0.10186388

sequential_4/quantize_annotate_10/Relu;sequential_4/quantize_annotate_10/BiasAdd;sequential_4/quantize_annotate_10/Conv2D;sequential_4/quantize_annotate_10/BiasAdd/ReadVariableOp f4 [16, 3, 3, 3]
00000000: 9a90 343a b971 063a 4d02 543a b4c1 1438
00000010: 7e77 54b9 a2cd 8d38 0ab8 33ba ced6 7cb9
00000020: fa93 abb9 647a 7fb9 1a01 3d3a 5a72 a6b9
00000030: 86aa 8fb9 1815 8638 85fb 0a38 e8ed 2cb9
00000040: 5ec0 6fb9 8fcd 3aba 773b 6ab9 f38d 3db8
00000050: ce0a 20ba 5382 f839 073b 20b8 b89b 41ba
00000060: c10e ca39 dd8c 0e3a c703 2f3a f843 4dba
00000070: 9db3 f039 bda9 de39 c5d9 ee39 6bad bab9
00000080: 402a 1e39 a9c0 52b9 4045 1739 3b91 673a
00000090: 000d 3bba 40f1 3eb9 5d1d 8239 b0dc 04b9
000000a0: d7c2 3dba 5e71 56ba 3e16 0c3a c1c2 de39
000000b0: 000e f8b9 ecf4 3f3a 8f7b 7c3a 34fc b8b9
000000c0: f2f3 be39 df69 f436 3866 1eba 57d2 1cb8
000000d0: c664 c939 7617 44ba 8924 5438 96a1 5eba
000000e0: 70a7 d038 bb7f 243a a085 363a 2676 a638
000000f0: 6d91 353a ac5b 5b38 3efc ceb9 c03f 90b9
00000100: 26b8 80b9 c1c5 69b9 52dd ff39 d0d3 d939
00000110: 6b2e c1b9 576b 8db9 03e0 163a 7d39 3539
00000120: 6f34 cab8 fa61 4039 9e67 7ab9 af45 3dba
00000130: f590 a739 0688 9239 6038 bd39 c11b 503a
00000140: 7c7b 333a d63c cbb9 6263 46ba 066b 9ab9
00000150: 0c5c 99b9 8879 0eba aa4e 1a3a 879f f339
00000160: fff6 7d39 7640 04ba 2604 fd39 34e9 013a
00000170: a1c1 d3b9 bd32 173a 4762 0d3a 92bf 153a
00000180: 8379 04b9 345a 36ba 8a32 49ba c888 ffb9
00000190: ec63 36ba 49bd bbb9 1915 09ba 40db 39ba
000001a0: 6bc1 4a39 ea82 cd37 6231 6839 373a 59ba
000001b0: c0ae ca39 5981 6fba a43f 36ba 6233 87ba
000001c0: 104a 7dba 513d 3eba 12e9 0c3a 27f3 cdb9
000001d0: 9de1 1aba 1eed ed38 01e9 4f3a 0358 1a3a
000001e0: c7a4 89b9 5d1b 5b3a bd07 14b8 8407 863a
000001f0: 7bb1 d139 4802 8e3a c9a0 d839 fed9 c3b9
00000200: 3076 ae38 33dd 33b9 e22f 813a 5156 8839
00000210: ba86 88b9 5622 2c3a 9d7b 4b3a 7716 f639
00000220: 272b e339 d6a2 ea39 ffc7 1a3a e5cf c7b8
00000230: 5606 ebb9 656c 60ba dd6f 4ab9 2b7b 53ba
00000240: 6747 b4b9 28f5 08ba 0d8e 113a ffdc 013a
00000250: 5cf8 bd39 a82c 3a3a 96cc 263a fa56 a8b8
00000260: 2b8a 8239 9d5f 09b6 ddda 4aba eff3 8038
00000270: 8c35 e738 2be5 a739 53e4 a639 4742 ff39
00000280: c145 3339 e3c3 8039 717a 01ba d2bb 2d3a
00000290: 5976 5b3a 97c9 2d3a 93ee 543a c0f1 b8b9
000002a0: c40e f639 385d 0b3a 44cf 9039 cfe2 633a
000002b0: 4e9a d4b9 05ca ff39 53d2 fd39 cc01 c039
000002c0: a34f 08ba 88fb 203a eff2 dd39 fceb 243a
000002d0: a9ec 0dba b38b e1b9 6b4c 5e39 5811 8c39
000002e0: c947 6539 ce73 bd39 4e5a 443a 41c9 4c39
000002f0: d1a9 373a 5f42 1739 8d7c ef39 1ef1 5a3a
00000300: 9365 8e3a 87cc 8939 bc03 8f3a c860 84b9
00000310: 6051 353a c3d9 3b3a ed5f 4ab9 bcb4 b937
00000320: 9d30 01ba 730c 1fba 5761 a239 607c 323a
00000330: 579d e539 95c1 113a 5190 a0b7 7b35 66ba
00000340: b352 a7b9 6e62 9cba fc38 3aba aa23 3dba
00000350: c470 8fb9 a437 f1b9 8306 29ba 4985 41b9
00000360: a4df 92b9 d245 193a 3c13 b839 243f 55b9
00000370: 6b94 693a 78f7 2f3a fb56 83b9 d4f3 19ba
00000380: 4078 4339 bec6 f139 f552 2ab9 e433 3c3a
00000390: 81a0 893a 18d0 e639 184b 833a 6b32 f738
000003a0: 0447 3f3a f93c b6b8 c12a 5b39 ec3b 033a
000003b0: fbc5 edb9 3b31 12ba c7bf f439 6a12 2cba
000003c0: 5869 0bba 02be 2538 2b81 4aba 09f6 eb37
000003d0: e344 4b3a f2e0 7c3a 4417 5fb9 95ce b039
000003e0: abe0 7f39 1926 dfb9 5159 313a a11a 8438
000003f0: 4202 13b9 45fb 3d3a 235e 96b8 e1e7 53ba
0.00068880024 0.00051286403 0.0008087501 3.546635e-05 -0.0002026241 6.761706e-05 -0.0006855732 -0.00024112614
-0.00032725913 -0.00024364289 0.0007209942 -0.00031747186 -0.00027402135 6.393547e-05 3.313601e-05 -0.00016491825
-0.00022864479 -0.00071259675 -0.00022338131 -4.5193312e-05 -0.00061051256 0.00047399345 -3.8201946e-05 -0.00073855696
0.00038539435 0.00054378604 0.0006676283 -0.00078302575 0.0004591019 0.00042469605 0.00045557148 -0.0003560589
0.00015083794 -0.00020098932 0.0001442628 0.0008833592 -0.0007135421 -0.00018209685 0.0002481741 -0.00012670713
-0.0007238811 -0.0008180345 0.00053438905 0.00042488243 -0.00047312677 0.0007322568 0.0009631449 -0.0003528312
0.00036421377 7.2840917e-06 -0.00060424535 -3.7389193e-05 0.0003841279 -0.00074803026 5.0578765e-05 -0.0008492706
9.9494006e-05 0.0006275137 0.00069626607 7.937504e-05 0.0006926272 5.2299045e-05 -0.00039479317 -0.00027513318
-0.00024551264 -0.0002229428 0.00048802287 0.00041547278 -0.00036846413 -0.0002697359 0.0005755426 0.00017282921
-9.641877e-05 0.00018347046 -0.00023880458 -0.00072201615 0.00031960724 0.00027948635 0.00036090892 0.0007938706
0.0006846709 -0.00038764504 -0.000756791 -0.00029452908 -0.00029251014 -0.00054349797 0.00058863556 0.0004646743
0.00024219973 -0.0005045006 0.0004825901 0.00049557094 -0.0004038932 0.00057677535 0.00053933676 0.0005712445
-0.00012633768 -0.00069561903 -0.00076750724 -0.000487393 -0.00069576385 -0.00035808448 -0.0005229279 -0.0007089861
0.00019336275 2.4498866e-05 0.0002214364 -0.0008286568 0.0003865864 -0.0009136401 -0.0006952232 -0.0010314996
-0.000966222 -0.00072570617 0.00053753064 -0.0003928181 -0.0005908253 0.00011345207 0.00079311436 0.00058877486
-0.00026253445 0.00083582645 -3.5293157e-05 0.0010225629 0.0003999582 0.001083442 0.00041318525 -0.00037355715
8.318981e-05 -0.00017153173 0.0009856189 0.00026004252 -0.0002604032 0.0006566396 0.0007762255 0.00046937514
0.00043328965 0.0004475328 0.00059044355 -9.527783e-05 -0.00044827414 -0.0008561074 -0.00019305894 -0.00080673647
-0.00034385474 -0.00052245194 0.0005552478 0.00049538905 0.0003623393 0.0007101991 0.0006362883 -8.027065e-05
0.00024898475 -2.0470245e-06 -0.00077383016 6.148952e-05 0.00011024912 0.00032023466 0.00031832102 0.0004868677
0.00017096756 0.0002456001 -0.00049392047 0.00066274137 0.0008371822 0.00066294655 0.00081227085 -0.00035275333
0.00046931778 0.000531632 0.00027620245 0.000869316 -0.00040550757 0.00048787906 0.00048412624 0.00036622433
-0.0005199855 0.00061409967 0.00042333404 0.0006291268 -0.0005413988 -0.00043019428 0.00021200038 0.00026715803
0.00021865884 0.0003613517 0.0007490263 0.00019529929 0.00070062006 0.00014425207 0.0004567843 0.00083519693
0.0010864012 0.0002628306 0.0010911147 -0.0002524911 0.0006916728 0.0007165933 -0.00019299956 2.213788e-05
-0.00049282034 -0.0006067224 0.00030971572 0.00068086945 0.0004379551 0.0005560157 -1.9140689e-05 -0.0008781773
-0.00031914338 -0.001193119 -0.0007103828 -0.0007215092 -0.00027359102 -0.00046008558 -0.00064478087 -0.00018455567
-0.00028013915 0.0005846891 0.00035109546 -0.00020336785 0.00089103606 0.0006712596 -0.00025051073 -0.000587282
0.00018641446 0.00046115177 -0.00016243367 0.0007179363 0.0010500104 0.0004402406 0.0010016887 0.00011787269
0.0007296654 -8.689793e-05 0.00020901395 0.00050061825 -0.0004535167 -0.0005576794 0.00046682192 -0.0006564023
-0.00053181266 3.9516024e-05 -0.0007724936 2.8128752e-05 0.00077541004 0.00096465566 -0.00021275604 0.00033723252
0.0002440239 -0.0004256226 0.00067653233 6.2992105e-05 -0.00014019854 0.000724722 -7.170092e-05 -0.0008083564

sequential_4/quantize_annotate_10/BiasAdd/ReadVariableOp f4 [16]
00000000: 8bdb f139 694e e6bc d420 50be c19c e9bc
00000010: b469 3fbe 3ed6 55be 212a bfbd 9e3c 52ba
00000020: 012c 43be 956e 233e 8572 cdbd 187e cf3d
00000030: 5741 263e 1a8e 3fbe 5ca9 6cbc 6b01 1ebc
0.00046130674 -0.02811356 -0.20325023 -0.028517129 -0.18692666 -0.20882508 -0.09334207 -0.0008019897
-0.19059755 0.15960152 -0.100316085 0.10131472 0.16235863 -0.18706551 -0.014444675 -0.009643893

sequential_4/quantize_annotate_11/BiasAdd/ReadVariableOp f4 [32]
00000000: cb42 0b3e c3c4 fdbc 0921 f93c 710d babc
00000010: 3ec3 cf3d 3e0f 0dbe 1ac9 2dbe 0e60 82bd
00000020: 81f9 15be 4d1b b63d c011 e1bd 46d3 e3bd
00000030: efbd c4bc afba a8bd bd77 7abd 1372 763d
00000040: 6496 913d 1d8a debd 349e a93d 32ac 84bc
00000050: 0096 c7bd e1c0 ec3d 41f9 513d fc4a b8bc
00000060: b825 f8bd 45f4 843d 5f8a a7bd fae5 babd
00000070: fd3d 96bd 8d52 ebbd 8993 fd3d 493f 3fbd
0.13599698 -0.030977612 0.03041126 -0.022711487 0.10144661 -0.13775346 -0.16971245 -0.06365977
-0.1464596 0.08891926 -0.10989714 -0.111242816 -0.024016349 -0.08238732 -0.061149348 0.060167383
0.07108763 -0.10866187 0.08282128 -0.01619539 -0.09745407 0.11560226 0.051263098 -0.022496693
-0.12116569 0.06491903 -0.08180689 -0.09125896 -0.07336042 -0.11490355 0.12381656 -0.046691213

sequential_4/quantize_annotate_12/BiasAdd/ReadVariableOp f4 [64]
00000000: 7f6d 0ebc 98eb 5dba b7db 64bc fab4 b7bc
00000010: 1647 2cbc 9648 25bc cd2e dbbb 77bd 26bc
00000020: e1b5 32bc 60ba e2ba 4082 fdbb fe7f 15bc
00000030: 4aec 3cbc 5cfc c9bd 2cc3 58bc b624 e7bb
00000040: f2aa 77bb 2052 c3bc 925e 52bc 88c6 abbd
00000050: 11bc 25bd e291 9abd 41b9 3abd ffb4 4d3c
00000060: 1f70 86bc 2979 3dbc 4a7d 84bc 6740 30bb
00000070: 3d51 51bc 4b0c a5bd 578d 54bd 5a71 f0bc
00000080: a1b9 95bc 9a1e 30bc e36d 5dbc 2e66 a0bc
00000090: d442 80bc 151f b9bc 0845 77bb dbce dfbb
000000a0: 61a2 cebc 8eb6 16bd 4ec6 6bbd db36 8cbd
000000b0: 6ac7 3bbc feaf 3cbc f094 29bd 49a2 06bc
000000c0: 3b5a 01bc ee01 b5bc 7a62 1fbc 29d9 80bd
000000d0: cd76 54bc 4d2d 833d 72df 17bc 7622 43bd
000000e0: d959 fbbb e7e2 15bc 083a 603d 864c 6b3d
000000f0: 803b 19bc 2843 08bd f3b1 85bc be17 f0bb
-0.008693098 -0.0008465587 -0.0139684 -0.022425164 -0.010514995 -0.010088107 -0.0066889287 -0.010177008
-0.010907621 -0.0017297976 -0.0077364743 -0.009124754 -0.011530945 -0.09862587 -0.013230126 -0.007053937
-0.00377911 -0.023842871 -0.01283993 -0.08387476 -0.040462557 -0.07547356 -0.04558683 0.01255536
-0.016410885 -0.011564531 -0.016173024 -0.0026893856 -0.012775716 -0.08058985 -0.051892605 -0.029350925
-0.018276991 -0.0107494835 -0.013514969 -0.019579973 -0.015656866 -0.022597829 -0.0037730355 -0.006830079
-0.025223913 -0.03679519 -0.057562165 -0.068464 -0.011461118 -0.011516569 -0.041401803 -0.008217403
-0.007895048 -0.022095647 -0.0097280685 -0.0629142 -0.012967777 0.06405125 -0.009269582 -0.047640286
-0.007670623 -0.009148336 0.054742843 0.057446025 -0.009352565 -0.03326717 -0.016320204 -0.007327049

sequential_4/quantize_annotate_11/Conv2D i1 [32, 3, 3, 16]
00000000: f00b 010a b9b0 0dff cdff e02a 3f0c 2b10
00000010: f7ea da33 bdf1 ed05 fa25 15fd 4c1c 2dea
00000020: 04fc 25dc ecd8 37ed d8f4 1325 c134 ffc8
00000030: 0ee0 81ed fadb e3cc a14b aa01 45e3 fa10
00000040: b3ea 1e01 e8aa 29ec b4e0 2af9 fab3 1cd0
00000050: dcd7 f104 3ced eef8 1306 11f7 bd28 ed9d
00000060: f0d9 df26 fcd3 18d5 01fa d627 0415 f427
00000070: 044a 01dc c4cb d206 b7ee 030f 4ded 01f9
00000080: f816 11d7 d004 0b4c f50f e73e d70a eda7
00000090: bfff f817 27e3 1be0 37c1 b49c ac2b fa3e
000000a0: feac 531d 2dad 3432 fd12 afcd ddba b31a
000000b0: 9e42 c9f7 d699 0be4 0fcf 054b c3ac 140e
000000c0: db8c e23a ccec a1ae 94a7 afe5 4650 62ab
000000d0: 6633 e7b8 5b9d c2f0 4a9b 0291 c132 f497
000000e0: 3dd6 2db5 cba6 4a24 2e53 0981 b3ed db8f
000000f0: e097 3437 98ae f0e4 4139 62d6 8abd 09f8
-16 11 1 10 -71 -80 13 -1
-51 -1 -32 42 63 12 43 16
-9 -22 -38 51 -67 -15 -19 5
-6 37 21 -3 76 28 45 -22
4 -4 37 -36 -20 -40 55 -19
-40 -12 19 37 -63 52 -1 -56
14 -32 -127 -19 -6 -37 -29 -52
-95 75 -86 1 69 -29 -6 16
-77 -22 30 1 -24 -86 41 -20
-76 -32 42 -7 -6 -77 28 -48
-36 -41 -15 4 60 -19 -18 -8
19 6 17 -9 -67 40 -19 -99
-16 -39 -33 38 -4 -45 24 -43
1 -6 -42 39 4 21 -12 39
4 74 1 -36 -60 -53 -46 6
-73 -18 3 15 77 -19 1 -7
-8 22 17 -41 -48 4 11 76
-11 15 -25 62 -41 10 -19 -89
-65 -1 -8 23 39 -29 27 -32
55 -63 -76 -100 -84 43 -6 62
-2 -84 83 29 45 -83 52 50
-3 18 -81 -51 -35 -70 -77 26
-98 66 -55 -9 -42 -103 11 -28
15 -49 5 75 -61 -84 20 14
-37 -116 -30 58 -52 -20 -95 -82
-108 -89 -81 -27 70 80 98 -85
102 51 -25 -72 91 -99 -62 -16
74 -101 2 -111 -63 50 -12 -105
61 -42 45 -75 -53 -90 74 36
46 83 9 -127 -77 -19 -37 -113
-32 -105 52 55 -104 -82 -16 -28
65 57 98 -42 -118 -67 9 -8

sequential_4/quantize_annotate_12/Conv2D i1 [64, 3, 3, 32]
00000000: efef 3418 c9b4 0aba 25da f600 c6f8 fd0c
00000010: eee3 e2d0 d832 3904 f0ed f435 1bd1 ee0c
00000020: 1318 dfe7 e929 29d2 d4fd f6ba 00fb ec0e
00000030: 03ed 24c3 dbdc fee0 2ef2 12d9 07aa fbc8
00000040: f7fd 0d2b 0ad7 3306 c7e4 31f4 d9cb 1225
00000050: edec 20c9 dbf5 2d08 1f01 2e2b 2bfd 0ee8
00000060: c6d1 02d8 e6dd e2ff db81 31f5 ed30 d4cd
00000070: 2d0f ccce 18d6 c331 2a0e e7d6 cad3 3102
00000080: 2901 00c5 15e5 15c6 1b4e 340d 01e4 0dd6
00000090: 3e2c 21e3 0a0f 311c f1ba fcc3 1b24 1111
000000a0: 1001 e6fa ccd3 0d1c c2ba ed07 d929 fae6
000000b0: 30e7 2529 003c ccea d1dd d3df cbd8 bf05
000000c0: 0ef4 12cb d0fd 20ea 30a3 e8c9 14c1 cdbb
000000d0: c3dc fc20 b91b 01e6 f026 de2d f2aa 2718
000000e0: 2b1c e8f4 cdc2 ba03 f7fe eff8 3bc5 dbc6
000000f0: 2d03 20c1 c8c1 c928 cdd7 39ea 1aa2 be34
-17 -17 52 24 -55 -76 10 -70
37 -38 -10 0 -58 -8 -3 12
-18 -29 -30 -48 -40 50 57 4
-16 -19 -12 53 27 -47 -18 12
19 24 -33 -25 -23 41 41 -46
-44 -3 -10 -70 0 -5 -20 14
3 -19 36 -61 -37 -36 -2 -32
46 -14 18 -39 7 -86 -5 -56
-9 -3 13 43 10 -41 51 6
-57 -28 49 -12 -39 -53 18 37
-19 -20 32 -55 -37 -11 45 8
31 1 46 43 43 -3 14 -24
-58 -47 2 -40 -26 -35 -30 -1
-37 -127 49 -11 -19 48 -44 -51
45 15 -52 -50 24 -42 -61 49
42 14 -25 -42 -54 -45 49 2
41 1 0 -59 21 -27 21 -58
27 78 52 13 1 -28 13 -42
62 44 33 -29 10 15 49 28
-15 -70 -4 -61 27 36 17 17
16 1 -26 -6 -52 -45 13 28
-62 -70 -19 7 -39 41 -6 -26
48 -25 37 41 0 60 -52 -22
-47 -35 -45 -33 -53 -40 -65 5
14 -12 18 -53 -48 -3 32 -22
48 -93 -24 -55 20 -63 -51 -69
-61 -36 -4 32 -71 27 1 -26
-16 38 -34 45 -14 -86 39 24
43 28 -24 -12 -51 -62 -70 3
-9 -2 -17 -8 59 -59 -37 -58
45 3 32 -63 -56 -63 -55 40
-51 -41 57 -22 26 -94 -66 52

sequential_4/quantize_annotate_13/MatMul i1 [64, 3136] scale=0.0034553087 zero_point=0
00000000: fdfd 0d0c 060c fdf7 04ff fa01 f506 0f1c
00000010: fe03 ff2a 0509 0002 07fd 0607 0101 04f4
00000020: 1506 f8fa 00fb ebfc f9ee 1611 f7fd 0dfe
00000030: faff 000a 05e0 fb05 09f9 0de2 080d f70a
00000040: f4f3 fa0d 0703 fef6 f314 00fd fdfe 02f0
00000050: 11fc f807 0904 fc04 1007 fafd f80e f50c
00000060: 090c 012a 0106 e509 09f5 ff0e 06ff fef5
00000070: ff00 f6e9 0ceb f90d f8fb 1b15 f708 0901
00000080: fc09 0cfc f9f5 01fb 0b0e f303 fef3 09fd
00000090: 0cfa 0310 0d00 02ef f801 050a f602 03f8
000000a0: f10a f525 fff6 fa0a 0a0a f800 0a00 0307
000000b0: f5fd f704 0913 0100 fbf1 141a fc1a 0206
000000c0: f6f7 ff0f 0cf8 0200 fdf9 070d 040d 11f1
000000d0: 0309 f9fb 0303 0eeb 0c02 fd04 fc0c 0707
000000e0: fe08 f809 f508 fa00 04fc f9fd f5f6 0805
000000f0: 0308 f823 fc20 08fe fefb 391a 0704 0305
-0.010365926 -0.010365926 0.044919014 0.041463703 0.020731851 0.041463703 -0.010365926 -0.031097779
0.013821235 -0.0034553087 -0.020731851 0.0034553087 -0.038008396 0.020731851 0.051829632 0.09674864
-0.0069106175 0.010365926 -0.0034553087 0.14512296 0.017276544 0.031097779 0.0 0.0069106175
0.02418716 -0.010365926 0.020731851 0.02418716 0.0034553087 0.0034553087 0.013821235 -0.041463703
0.07256148 0.020731851 -0.02764247 -0.020731851 0.0 -0.017276544 -0.07256148 -0.013821235
-0.02418716 -0.062195558 0.07601679 0.058740247 -0.031097779 -0.010365926 0.044919014 -0.0069106175
-0.020731851 -0.0034553087 0.0 0.03455309 0.017276544 -0.11056988 -0.017276544 0.017276544
0.031097779 -0.02418716 0.044919014 -0.103659265 0.02764247 0.044919014 -0.031097779 0.03455309
-0.041463703 -0.044919014 -0.020731851 0.044919014 0.02418716 0.010365926 -0.0069106175 -0.03455309
-0.044919014 0.06910618 0.0 -0.010365926 -0.010365926 -0.0069106175 0.0069106175 -0.05528494
0.058740247 -0.013821235 -0.02764247 0.02418716 0.031097779 0.013821235 -0.013821235 0.013821235
0.05528494 0.02418716 -0.020731851 -0.010365926 -0.02764247 0.04837432 -0.038008396 0.041463703
0.031097779 0.041463703 0.0034553087 0.14512296 0.0034553087 0.020731851 -0.09329334 0.031097779
0.031097779 -0.038008396 -0.0034553087 0.04837432 0.020731851 -0.0034553087 -0.0069106175 -0.038008396
-0.0034553087 0.0 -0.03455309 -0.0794721 0.041463703 -0.07256148 -0.02418716 0.044919014
-0.02764247 -0.017276544 0.09329334 0.07256148 -0.031097779 0.02764247 0.031097779 0.0034553087
-0.013821235 0.031097779 0.041463703 -0.013821235 -0.02418716 -0.038008396 0.0034553087 -0.017276544
0.038008396 0.04837432 -0.044919014 0.010365926 -0.0069106175 -0.044919014 0.031097779 -0.010365926
0.041463703 -0.020731851 0.010365926 0.05528494 0.044919014 0.0 0.0069106175 -0.058740247
-0.02764247 0.0034553087 0.017276544 0.03455309 -0.03455309 0.0069106175 0.010365926 -0.02764247
-0.051829632 0.03455309 -0.038008396 0.12784642 -0.0034553087 -0.03455309 -0.020731851 0.03455309
0.03455309 0.03455309 -0.02764247 0.0 0.03455309 0.0 0.010365926 0.02418716
-0.038008396 -0.010365926 -0.031097779 0.013821235 0.031097779 0.065650865 0.0034553087 0.0
-0.017276544 -0.051829632 0.06910618 0.08983803 -0.013821235 0.08983803 0.0069106175 0.020731851
-0.03455309 -0.031097779 -0.0034553087 0.051829632 0.041463703 -0.02764247 0.0069106175 0.0
-0.010365926 -0.02418716 0.02418716 0.044919014 0.013821235 0.044919014 0.058740247 -0.051829632
0.010365926 0.031097779 -0.02418716 -0.017276544 0.010365926 0.010365926 0.04837432 -0.07256148
0.041463703 0.0069106175 -0.010365926 0.013821235 -0.013821235 0.041463703 0.02418716 0.02418716
-0.0069106175 0.02764247 -0.02764247 0.031097779 -0.038008396 0.02764247 -0.020731851 0.0
0.013821235 -0.013821235 -0.02418716 -0.010365926 -0.038008396 -0.03455309 0.02764247 0.017276544
0.010365926 0.02764247 -0.02764247 0.120935805 -0.013821235 0.11056988 0.02764247 -0.0069106175
-0.0069106175 -0.017276544 0.1969526 0.08983803 0.02418716 0.013821235 0.010365926 0.017276544
